spd/notebooks/arithmetic_model.pth (torch, 48434 bytes, 3 tensors)

fc1.weight f4 [128, 16]
000000 2f 9d eb 3e c1 55 de 3e c4 bc cc 3e f6 31 95 3d
       0.4601836 0.434248 0.39987767 0.0728492
000010 ba 89 08 bf a9 b1 95 3e 8b 37 82 bd 6e d8 6b be
       -0.53335154 0.29237106 -0.0635825 -0.2303178
000020 6d c5 b6 3a 12 2c e9 3d a9 42 5f 3e 3d 09 be be
       0.0013944336 0.11385359 0.21802773 -0.37116423
000030 b5 e4 e7 bb b5 ce e9 3b a1 6e 5a be f6 46 76 3d
       -0.0070768245 0.007135237 -0.21331264 0.060126267
000040 3c f8 e5 38 4c 2b 89 3d 1f ce 51 bb 5d bb 1e 3d
       0.00010965808 0.06697711 -0.0032013727 0.038752902
000050 fe 75 61 bd b1 7e f0 3b a2 09 5c 3e d1 c5 6b 3d
       -0.055044167 0.0073393215 0.2148805 0.0575617
000060 8b 00 ac be 29 a0 83 be 50 8c a1 3d e0 10 f3 bd
       -0.33594164 -0.2570813 0.078880906 -0.11868453
000070 da 47 8f 3e ca 30 28 be 98 b0 e7 bd 97 be 6c bd
       0.27984506 -0.16424862 -0.113129795 -0.05779895
000080 56 3e 7c be 7b d0 a4 be 05 72 85 3d d2 31 02 bf
       -0.24633154 -0.32190308 0.06515888 -0.5085727
000090 a4 ac 04 3f d1 69 23 3f 45 f3 8e 3b 8c a6 fa bc
       0.5182593 0.6383334 0.004362496 -0.030596994
0000a0 8a 13 1c bc 1a 36 19 bd 8d c8 1d be 96 7d 1b 3d
       -0.009526143 -0.03740511 -0.15408535 0.037961565
0000b0 43 05 d8 bb be dd 4b 3d ca 81 80 be b9 9d 09 3c
       -0.006592424 0.049772017 -0.2509902 0.00839942
0000c0 1e 3f 58 3f ca 61 81 3e 35 b6 2b be b7 53 39 3d
       0.8447131 0.2526992 -0.16768725 0.045245852
0000d0 3a f2 f5 3e 49 c9 34 3f f8 a6 34 3e 31 fd 88 bd
       0.48036367 0.70619637 0.17641819 -0.066889174
0000e0 e3 34 77 bb cf dc 0b 3e eb da 38 be b5 36 54 ba
       -0.0037720732 0.1365845 -0.1805226 -0.000809531
0000f0 a0 5f d1 bc 80 db a2 3d 62 e5 9e 3d 75 5d 95 be
       -0.025558293 0.079520226 0.07758595 -0.29172865
000100 e7 9c 8b bc ea 6e a8 3d 85 0a 8f 3d 5b 74 07 3e
       -0.01704259 0.0822428 0.06984428 0.1322798
000110 63 d5 9f bd 20 6e 01 bd 01 0c d1 be ee e2 4b 3f
       -0.07804372 -0.031599164 -0.4082947 0.7964314
000120 58 dc 2d be dc 89 2d 3e be f0 48 3e 75 51 b5 3e
       -0.16978586 0.1694712 0.19623086 0.3541371
000130 27 3f 07 be 42 bd 3e be 45 3b 5d bd 49 97 2e bd
       -0.13207684 -0.18626884 -0.054011602 -0.042624746
000140 93 81 8a bc 5f 5f 59 be a3 ce 95 3e af 5d 95 3d
       -0.016907489 -0.21227787 0.29259214 0.07293259
000150 45 b0 c9 3d 2b cd 29 be fe 24 6a be 97 bc cd be
       0.09848074 -0.16582172 -0.22865674 -0.40182945
000160 b9 17 4b 3e 3f 86 f4 bd 6b 63 08 3f 8f d1 6c 3e
       0.19833268 -0.11939668 0.532767 0.23126815
000170 34 e2 9b be 3a c6 f7 3e e3 46 41 3d 50 05 7b 3d
       -0.30446017 0.48393422 0.047186743 0.061284363
000180 c8 92 ec 3d a5 65 12 be 2d 33 c9 bd c0 ed 50 3e
       0.11551434 -0.14296587 -0.09824214 0.20403194
000190 65 26 50 bd fd 8d 56 bd 8a 21 27 3e fc 35 10 3e
       -0.050817866 -0.052381504 0.16321388 0.14083093
0001a0 61 aa 38 be 01 5c aa be 6e 2f 92 bd 52 a8 c7 bd
       -0.18033744 -0.33273318 -0.07137953 -0.097489014
0001b0 2f 7c ab be 10 2a 8b 3e d3 95 29 3e 09 8a 1f 3c
       -0.33493182 0.2718053 0.1656106 0.0097375
0001c0 b5 2d 57 be 49 d7 73 be 4f 37 65 3e 5f 25 d9 bd
       -0.2101353 -0.23812594 0.2238438 -0.10602831
0001d0 fa 36 b7 be 87 88 c0 be e8 f8 42 3e 26 49 31 be
       -0.3578413 -0.37604162 0.19040263 -0.1731306
0001e0 f5 4e ef bd 71 69 44 be 2b 1b 25 be 62 ea 86 3d
       -0.11684982 -0.19180848 -0.16123645 0.06587674
0001f0 c2 63 b1 be a3 2c dd bc fc 1e f7 bd c6 36 43 bd
       -0.34646422 -0.026998824 -0.12066457 -0.047659658
000200 e2 3c 55 bc c8 dd 94 3d 73 57 9b bb be f2 75 3d
       -0.013015004 0.07268864 -0.0047406494 0.06004595
000210 a8 5e 4f bd e0 c3 3b 3c 09 cd fd 3d 20 2d 9b 3d
       -0.05062738 0.011460274 0.12392623 0.07576966
000220 39 18 ac be f4 9c 8e 3e bd 3b 03 3f 3c 02 10 be
       -0.3361223 0.2785412 0.5126303 -0.14063352
000230 57 c2 c5 3e 20 dc 81 be c1 de 4d bd 0a 5a 7b bd
       0.38624832 -0.25363255 -0.050261263 -0.061365165
000240 e0 71 e7 bd 43 a9 f7 bd 82 a4 02 3e 1c ad b3 bd
       -0.11301017 -0.12092831 0.12758067 -0.08773252
000250 cf 68 83 3d df a2 da bd 99 66 07 3e ef 0f a4 be
       0.06416475 -0.106755964 0.13222732 -0.32043406
000260 c9 0d b1 3b a7 d1 8f be df 37 63 3d cd 05 68 3e
       0.0054032546 -0.2808964 0.055473205 0.22658463
000270 7d f2 2a 3f 87 f0 ba be 41 c3 ae 3e 5f 16 2d bc
       0.6677626 -0.36511633 0.34133342 -0.010564416
000280 3b 79 31 3d f1 ac 96 3d 89 ca 5c bd 38 fa 0d be
       0.043328505 0.07357205 -0.05390409 -0.13864982
000290 dd 8c 06 3e e9 67 80 bd 36 85 c0 bc 94 bc 1b 3d
       0.13139673 -0.06269819 -0.02350102 0.03802164
0002a0 f2 10 d4 3e 4e 23 ea 3e d5 c9 fe 3d 5b 26 04 ba
       0.41419178 0.4573006 0.1244084 -0.0005041116
0002b0 77 6e be bd 08 ab ad bd f9 a5 a7 3c 99 7b 80 bd
       -0.09298413 -0.08479887 0.020464884 -0.062735744
0002c0 1d 39 f8 3d ad 4d fc bc b9 4f 6a bd 37 2a 65 be
       0.121202685 -0.030798757 -0.057204936 -0.22379385
0002d0 91 34 2d be 5e 4b 17 be e8 17 3d bf d1 f4 92 3e
       -0.16914584 -0.14774844 -0.73864603 0.28702405
0002e0 74 8a b0 3d ae 49 36 3a 4c 1d b5 3d 79 23 65 3e
       0.08620158 0.0006953728 0.088434786 0.22376813
0002f0 67 7b ed 3d b5 a1 c3 3b d4 d8 fa 3e 9e 08 42 3d
       0.11595803 0.0059702047 0.48993552 0.0473715
000300 88 dd 12 be 8b a6 e0 bd 1c ca 5a bd 74 88 bc 3d
       -0.1434232 -0.109692656 -0.053415403 0.09205714
000310 b3 ae d9 bc 85 25 5e be 38 b6 0a be 78 2a 3b bd
       -0.02657256 -0.21694 -0.13546073 -0.0456948
000320 1e b8 d0 be 35 fa cb be f2 89 53 3d 16 e5 62 bd
       -0.4076547 -0.3983933 0.051645227 -0.055394255
000330 a6 c0 08 3e c1 c3 46 3d d4 63 06 bc 0b ed 39 bd
       0.1335474 0.04852653 -0.008202512 -0.045392077
000340 cd 49 21 3d 2f 6a 12 be 96 bc e0 bd a6 00 3e bc
       0.039377023 -0.14298318 -0.1097347 -0.011596834
000350 40 40 21 3e b3 b8 ad 3c 06 0a 0c be 1a 36 f1 bd
       0.15747166 0.021206236 -0.13675699 -0.11777897
000360 e8 fa 55 bc dc 48 80 be 72 71 c5 bc ce 8c bd 3d
       -0.013060309 -0.25055587 -0.024101947 0.09255372
000370 2f 38 b0 3e 54 bc a1 3e 49 58 48 3e 71 7a 07 bc
       0.34417865 0.31588995 0.19564928 -0.008268938
000380 eb 01 c1 3d 63 45 c5 3d 91 49 19 3d e0 32 9a 3e
       0.09424194 0.09632375 0.037423674 0.3011694
000390 9e ab 72 3d 59 62 da 3d 22 35 fd 3e f8 6f 1e 3f
       0.0592457 0.106632896 0.494546 0.618896
0003a0 61 6a 83 3d 8f 10 25 3e 41 8d ad bd f7 f0 82 bd
       0.064167745 0.16119598 -0.08474208 -0.06393617
0003b0 25 bc c1 bb 21 e9 97 bc 27 b3 c6 bd 0f 63 03 3b
       -0.005912321 -0.018543782 -0.09702139 0.0020048057
0003c0 2b 32 f4 bb a8 db 3a bd 0a 68 2e 3d 07 cf e3 bd
       -0.0074522696 -0.045619637 0.042579688 -0.11123472
0003d0 f9 8a d9 bd 4d 4b 9a be 92 6e 21 be 67 a9 3f be
       -0.1062221 -0.30135575 -0.15764835 -0.18716966
0003e0 f8 29 16 3e ac fb 3f 3e db 2a 90 3f 1f ed 7c be
       0.14664447 0.18748349 1.1263078 -0.2469983
0003f0 0b 5e f1 be 2f 0a a6 be 13 34 35 3e 5b 8e 60 3b
       -0.47142062 -0.32429644 0.17695646 0.0034264538

fc2.weight f4 [64, 128]
000000 48 26 2b 3e fb 5b cc bd 53 89 1f 3e ef 0c 78 3e
       0.16713822 -0.099784814 0.15579729 0.24223684
000010 c1 e4 bb bd 9d 06 42 be f5 8a a2 3c 9d 20 08 3d
       -0.09174491 -0.18947835 0.01984165 0.033234227
000020 c8 e0 60 3d 72 aa 91 3d be 7d 64 3e 64 de 1c 3e
       0.054901868 0.07112588 0.22313592 0.1531921
000030 90 ef 60 3d f6 eb 88 3d 30 9d 04 3e 69 f5 56 3e
       0.054915965 0.06685631 0.12950587 0.20992054
000040 60 2a 3d be b6 f2 12 3d 96 d1 53 3e 73 81 ad 3d
       -0.18473196 0.035876 0.2068542 0.08471956
000050 5e 4c 6c 3e d4 f4 19 3e a9 37 7d bc fe b8 67 3e
       0.23076007 0.15034801 -0.015455165 0.22629163
000060 08 16 4d bd f9 0f 30 be 6d 80 ca bd 15 79 d1 bd
       -0.05006984 -0.17193593 -0.098877765 -0.10228173
000070 8c 31 8d bd ca 92 08 bd c5 97 18 3e 33 20 03 3d
       -0.06894216 -0.033343114 0.14901645 0.03201313
000080 b4 10 7c 3d f6 bc 2d 3e 4d f4 09 3e e5 e8 00 3d
       0.061539367 0.16966614 0.134721 0.031472106
000090 65 8a 16 3e ec dd 50 3e 30 d5 29 be de b7 be bc
       0.14701231 0.20397156 -0.16585231 -0.023281034
0000a0 f9 ed 85 3e 11 93 1e 3d 00 3c 6e 3e bf 87 d0 bc
       0.2615812 0.038714472 0.23265076 -0.025455354
0000b0 93 f3 03 3e 04 23 47 3e 97 be 64 bd df 36 e1 3d
       0.12885885 0.19446951 -0.055845823 0.10996794
0000c0 ab e5 3c be b0 bf 18 3e 96 10 2e 3e c6 70 41 bc
       -0.18446986 0.14916873 0.16998515 -0.011806672
0000d0 32 c9 3f 3e 1b 32 d7 3d 8d 80 0f bc 3b db 42 be
       0.18729094 0.10507604 -0.008758676 -0.19028942
0000e0 03 19 70 3e e6 eb 12 3e ed 8d f9 3d 9a 50 d8 3d
       0.23447041 0.143478 0.12185273 0.105622485
0000f0 3d 2f 38 3e f8 11 7e 3e c7 92 81 3b 45 2a ce 3c
       0.1798677 0.24811542 0.003954265 0.02516664
000100 8e 8f cd bd de fc 17 3e ce 74 b2 3d b6 0d 8a bd
       -0.100371465 0.14842555 0.08713685 -0.067408964
000110 ab e5 18 be a4 18 df 3d 62 c4 18 3e 5e 63 a9 bd
       -0.14931361 0.10893372 0.14918664 -0.08270906
000120 4f c9 66 be 03 d5 c5 3d 33 c7 8d 3b a3 45 42 3e
       -0.2253773 0.096597694 0.004326725 0.18971877
000130 0b 9a b3 3d 6b 70 a0 3d 7a f8 11 be b6 30 0d be
       0.08769616 0.07833942 -0.14254943 -0.13788113
000140 21 54 4e be 9a ba 31 be 43 81 a0 3d 32 54 52 bd
       -0.2014928 -0.17356339 0.07837155 -0.051349826
000150 cc 3e af bd dd 47 71 bb e8 56 ad bd 9a ec 66 3e
       -0.085568994 -0.0036816515 -0.08463842 0.22551194
000160 f5 e2 22 3e 20 b3 de bd 1e 14 d0 3e 6e 5e 2a 3d
       0.1590689 -0.10874009 0.40640348 0.04159396
000170 60 e6 6b bd f0 c7 a9 3d 6e 75 3f be 4f 14 08 3d
       -0.05759275 0.08290088 -0.1869714 0.033222493
000180 8c 12 c2 bc b7 b6 96 3e 72 fb 0f be 25 e0 6c 3d
       -0.023690484 0.29436275 -0.14060763 0.05783095
000190 1d 8b 36 3d 89 59 00 be 65 f4 84 bd 56 9e 27 3e
       0.044566263 -0.12534155 -0.06491927 0.16368994
0001a0 19 66 0b bd bf db af 3d 58 65 14 be 2b 77 15 be
       -0.034032915 0.08586835 -0.14491785 -0.1459624
0001b0 57 17 54 3d a3 3f d2 3c 9c c1 58 bd 19 0a 1b 3e
       0.05178007 0.02566511 -0.052919015 0.1514057
0001c0 5a cd fc bd ec cb f3 bb 17 9a 3e 3b a3 89 0c bd
       -0.12343855 -0.007440081 0.0029083544 -0.034310948
0001d0 83 6c 87 3e 10 2a 85 3c 48 35 b9 3d 98 7e b4 3d
       0.26449975 0.016255409 0.09043366 0.08813208
0001e0 cf f1 56 3d 04 ad 27 be 03 f1 21 be 8d 54 19 be
       0.0524767 -0.16374594 -0.15814595 -0.1497366
0001f0 bd d5 45 be 7a dc df bc 7c 69 8d 3d d1 b4 07 3c
       -0.19319816 -0.027326811 0.06904885 0.008282856
000200 85 d4 e9 bd 1b ac b6 3d c7 e6 26 3e 1b fe 53 be
       -0.11417488 0.08919545 0.16298972 -0.20702402
000210 e4 9e 04 be 8a d3 cf bc ce ac 50 3e 1a d9 31 3e
       -0.12951237 -0.025369424 0.2037842 0.17367974
000220 81 26 23 3e 90 c2 bb bd 17 ac cf bc 53 5a 46 3a
       0.15932657 -0.09167969 -0.025350614 0.000756656
000230 83 47 82 bd 9c 1b 1b be ea ae 60 3e 50 cd e4 bd
       -0.06361296 -0.15147251 0.21941724 -0.11171973
000240 1f 64 a4 3d 5e f0 38 3e 01 35 83 bd 57 d1 20 be
       0.08026909 0.18060443 -0.06406594 -0.15704857
000250 bd 66 f9 3d 10 38 c4 3d 47 6b a0 bd 9c d1 0f be
       0.12177799 0.095810056 -0.078329615 -0.14044803
000260 33 f7 b4 3d 6d 09 1f 3e 42 eb aa bd e6 97 a2 3d
       0.08836212 0.1553094 -0.08345653 0.079391286
000270 ba e4 46 3e 94 9c 6a 3d c5 24 a0 3c bd 73 87 3d
       0.1942319 0.05727823 0.019548783 0.06613872
000280 24 02 89 be ac 78 2c 3e 0d 6d 92 bc 24 81 40 be
       -0.26759446 0.16842908 -0.017874265 -0.18799263
000290 53 ba 07 be f8 05 24 be 4c e0 b2 3d fd d9 ba bd
       -0.13254671 -0.16017902 0.087341875 -0.09123609
0002a0 ad 31 94 bc cb 3b f5 bd 6f 52 db bc 60 b7 19 be
       -0.018090094 -0.11974295 -0.026772706 -0.15011358
0002b0 0e 31 f5 bd df a2 8e bd c1 b5 28 bd b9 66 69 3d
       -0.11972247 -0.06964659 -0.04118896 0.05698273
0002c0 52 8d 75 3d 18 25 ef 3d c6 6b 06 3d f1 22 0b 3e
       0.059949227 0.11676997 0.032817625 0.13587548
0002d0 97 00 85 3d 87 cf b1 3d 55 97 47 bd 31 b1 89 bc
       0.06494253 0.08682161 -0.048728306 -0.016808124
0002e0 28 18 fe 3d 00 a2 0a 3e 6d 5f 62 bd e0 1e 00 be
       0.12406951 0.1353836 -0.055266786 -0.12511778
0002f0 2d 9f 84 be e6 ba ff bd ed 8c c4 3e 84 32 9f 3d
       -0.2590269 -0.1248682 0.38388768 0.07773307
000300 33 08 12 bd 65 a9 0d 3e 8c 1f cb 3d 96 c3 8b 3d
       -0.03565235 0.1383415 0.099181265 0.068244144
000310 2f 8b 05 3e 52 9e 52 3e f1 c5 f5 3d a1 35 af 3c
       0.13041376 0.20568207 0.12000645 0.021387877
000320 a8 cc 27 3e 95 fd 44 3d 7d ec b9 3d 80 04 47 bc
       0.16386664 0.048093397 0.0907831 -0.012147069
000330 43 db f4 3d 85 32 16 3e 83 84 3f 3e bf 89 7a 3d
       0.11955883 0.14667709 0.18702893 0.06116652
000340 32 2f 02 3e 10 71 43 3d 16 a8 82 bd 84 64 70 be
       0.12713316 0.047715247 -0.06379716 -0.23475844
000350 49 36 ab 3d 8f f2 03 3e f2 d3 13 be 45 53 2f 3d
       0.083599634 0.12885498 -0.1443632 0.04280402
000360 60 79 ad bb 18 a6 61 3c c0 98 88 bd d8 44 86 3d
       -0.00529401 0.01377251 -0.0666976 0.065561
000370 51 9a 86 3e 1a 65 31 3e 89 5c 41 3d 51 af 0a be
       0.2628961 0.17323723 0.04720739 -0.1354344
000380 2d ec d9 bd 05 26 10 bc a0 0f 2a be ce a8 69 3c
       -0.1064075 -0.008798127 -0.16607523 0.014261438
000390 a1 69 11 3e 67 0e 41 3c fe 2f 6c 3e 5f 2c 86 be
       0.1420045 0.011783219 0.23065183 -0.26205727
0003a0 01 c1 b4 3e 9d af c3 3e b7 1a 8a 3c 86 f8 17 3e
       0.353035 0.3821992 0.016858442 0.14840898
0003b0 0a 13 c2 3e 62 3f 5e 3e cd f8 a9 3d ed 4a 01 be
       0.3790515 0.21703866 0.08299408 -0.12626238
0003c0 af 9a 06 bb 92 00 32 3e 8a 98 c7 bc 7e 78 0b be
       -0.0020538976 0.1738303 -0.024364728 -0.13620183
0003d0 c9 94 9a bd ea ba 08 be c2 5a 9f 3b 47 96 75 3b
       -0.0754791 -0.13352552 0.004863114 0.0037473605
0003e0 de 38 09 3e be a9 17 3d 5f de 4f 3d 07 00 21 3e
       0.134006 0.037027113 0.05074918 0.15722667
0003f0 83 7a 72 bd 6c d9 c3 3d 79 8c 70 bd 97 a7 1f 3e
       -0.059198868 0.09562954 -0.058727715 0.15591274

fc3.weight f4 [20, 64]
000000 6b 12 06 3e df 73 35 3e 4e ea b6 3c a6 ad 8d be
       0.13092963 0.17719983 0.022328522 -0.27671546
000010 92 bc 0b 3d 53 cf 15 be 18 95 35 3e dd e1 3f 3c
       0.03411538 -0.14629869 0.17732656 0.011711565
000020 31 10 95 bc 1c 52 1e bc 56 35 81 3c d7 e9 15 bd
       -0.018196197 -0.009663131 0.015772503 -0.03659996
000030 2e 3b d3 bb c9 d1 cc 3c 30 e2 01 3d 1e 05 3e bd
       -0.0064462638 0.025002377 0.03170985 -0.0463916
000040 01 e8 d7 bb 71 d3 03 3c 8c 79 a7 3c a9 84 fd 3c
       -0.0065889363 0.008046017 0.0204437 0.030947046
000050 c0 bc 68 bd 4d 34 a6 3d 26 c2 9c 3d 9e 79 57 3e
       -0.05682063 0.08115444 0.076542184 0.21042487
000060 35 85 d8 3d 69 fa da bc 12 17 7a bc 11 a6 00 3d
       0.10572282 -0.026730733 -0.015264289 0.031408373
000070 88 29 f6 3c db d4 b8 bc a4 eb 44 3d c0 c1 b2 3d
       0.0300491 -0.022562435 0.048076287 0.08728361
000080 ae 98 0b bc 00 48 87 3b e8 f5 ac bd bc 4e 5d bd
       -0.008520288 0.004128456 -0.084453404 -0.054030165
000090 da 84 3b 3c c3 84 01 be 32 a3 5d bc 36 57 8b be
       0.0114452485 -0.12648301 -0.013527678 -0.27214974
0000a0 a5 93 93 bc 93 53 0a 3e fe 19 45 be eb 0e 3f 3d
       -0.018014738 0.13508444 -0.19248196 0.046645086
0000b0 17 5a cd bd 92 d7 67 3d 7a 2e ad 3b 5f 91 eb bc
       -0.10026949 0.05660207 0.0052850815 -0.028755842
0000c0 76 aa 54 bc e0 30 1c bc 18 96 a3 3d 3a 3c bf ba
       -0.012980094 -0.009533137 0.079876125 -0.0014590092
0000d0 08 a0 ff b9 8e b7 17 3c 2f 1e 98 3d 84 9e c7 3d
       -0.00048756623 0.009260071 0.07427632 0.09747031
0000e0 f4 aa ae 3d a4 d3 f2 bd a0 6c 09 3c 5c 55 7d bb
       0.085287005 -0.118567735 0.008387715 -0.0038655614
0000f0 30 0b 87 bc 4f 6a 49 bd d5 41 0c be d7 2f 4a 3d
       -0.016484827 -0.04917365 -0.13696988 0.04936203
000100 ba 74 20 3d d9 5a bc 3b 74 61 c3 3d ca 2d f6 bb
       0.03917382 0.0057481346 0.09540072 -0.0075127827
000110 a5 9a 57 3b 0a f6 f9 3d 10 47 40 be ca 53 83 bb
       0.0032898572 0.12205131 -0.18777108 -0.004007791
000120 13 88 fa 3d 82 32 ae 3a f2 91 bc bc 53 cc 97 3d
       0.12232985 0.0013290199 -0.02301881 0.074120186
000130 28 66 87 bd e5 a7 f7 3b e8 20 0c 3d 69 ae 7a bc
       -0.06611282 0.0075578564 0.03421107 -0.015300372
000140 f3 2f 4f 3b e7 ca d4 ba 12 2d ad bd 15 0a 66 3b
       0.0031614273 -0.0016234786 -0.08455862 0.0035101224
000150 9b 1c 02 3d 8d 52 44 3e 7f 08 e8 3d d5 bf 7a 3c
       0.03176556 0.19172116 0.113297455 0.015304525
000160 7f 7e af bd 08 42 e5 3c bc d7 06 bd b3 16 ac 3d
       -0.08569049 0.027985588 -0.032920584 0.08402767
000170 e6 4e 30 bc 7b 27 ba bd b2 57 24 be ee 15 90 bd
       -0.010760998 -0.090895616 -0.16049078 -0.07035433
000180 b5 58 f2 3b 39 47 cb bb 51 64 d9 bd 99 2d e3 3d
       0.0073958286 -0.0062035588 -0.10614837 0.110926814
000190 4e 60 bc ba 5e 41 38 3c 2c 50 02 be b2 2e 57 3e
       -0.0014371963 0.0112460535 -0.12725896 0.21013907
0001a0 f2 7b ef bd 76 88 46 3d 31 7e 21 3e a9 f4 9a bd
       -0.116935626 0.048469983 0.15770794 -0.075661965
0001b0 fb 09 42 3e e2 c3 07 be 34 dd 64 3a dc 63 e6 bc
       0.1894912 -0.13258317 0.00087304716 -0.028123789
0001c0 4e 3d 75 3c b3 2a 81 3c 27 a9 c6 bd 96 60 1f 3c
       0.014968229 0.01576743 -0.09700232 0.009727618
0001d0 5f ee 49 bb 2e 1f 30 bc ee 77 ec bd e3 55 55 be
       -0.0030812246 -0.010749621 -0.11546312 -0.20833544
0001e0 de a8 bf 3d 6f 43 46 bd 1c 0c 07 bd b8 14 fc 3c
       0.09358381 -0.048404153 -0.032970533 0.030771598
0001f0 67 12 55 3c c9 3d 66 be e0 4f 8e 3d 08 64 73 3e
       0.013004876 -0.22484507 0.06948829 0.23768628
000200 48 b1 2e 3e 55 f4 3a 3e a0 c6 f0 3d 16 1b 92 be
       0.17059815 0.18257268 0.11756635 -0.2853629
000210 8b a8 16 3d ab 9e cc bc ee 7b 3e bc fe 7b f8 3b
       0.03678183 -0.024978003 -0.011626227 0.0075831404
000220 42 0c d5 3d 20 04 00 bc e7 e1 f9 bb ec 57 1c 3d
       0.104027286 -0.0078134835 -0.0076258066 0.038169786
000230 ee 3d 92 bd 25 80 08 3d 1c e9 88 3d 80 b7 81 bd
       -0.071407184 0.033325333 0.06685087 -0.06333828
000240 56 3a 86 bb 3c 69 c8 3b ae 83 83 bd c9 1a 0f 3d
       -0.0040963097 0.0061160605 -0.064216 0.034937654
000250 0f fe ce bc a3 2d 8b 3e 33 95 44 3e 60 6e 67 3e
       -0.025267629 0.27183256 0.1919754 0.22600698
000260 dc 8b b1 3c 4f 5d 06 3b bf 7b 41 bd 5c 8c eb 3d
       0.021673135 0.0020502394 -0.047237154 0.11501381
000270 b3 d0 a5 3c 9e e1 e9 bd 09 69 e4 bd ab 23 77 3c
       0.020241117 -0.11419986 -0.11152846 0.0150841875
000280 aa 05 a0 ba fd 50 d0 ba e4 51 42 be 53 e2 6b 3d
       -0.0012208719 -0.0015893277 -0.18976551 0.057588886
000290 93 01 25 3c bd fb ea bd c3 57 10 be d3 cc 81 bd
       0.010071176 -0.114737965 -0.14095978 -0.06337895
0002a0 2e b7 0a be 39 87 3c 3e b8 ce 11 bd 29 d4 ed bc
       -0.1354644 0.18410958 -0.035597533 -0.02903183
0002b0 8b cf b8 3d b9 18 9d bd a1 43 cc 3b a4 82 6a bd
       0.09023961 -0.07670731 0.006233648 -0.057253495
0002c0 48 71 61 3a c1 99 ca 3b 67 69 7c bc ff 25 00 3c
       0.0008599949 0.0061828797 -0.015405989 0.007821559
0002d0 b0 2b 5f bb c2 d8 09 bb 26 b2 2d bd 1d 7d e4 bd
       -0.003405314 -0.0021033739 -0.042406224 -0.11156676
0002e0 b7 f6 35 3e 6c 8b 2a be 44 31 cd bc dd d3 dd 3c
       0.17769895 -0.16654748 -0.025047906 0.027078563
0002f0 e5 e7 5f bb f4 22 8c be ae c1 8b bd 5e 32 92 3e
       -0.003416532 -0.27370417 -0.06824051 0.28554052
000300 93 02 2b bd 0a 3b ec bd fb 39 fe bb b9 8f 78 bd
       -0.0417505 -0.11534698 -0.0077583767 -0.06068394
000310 3d 20 ae 3c 80 fe ab bd cb 2a d8 3d 59 75 20 bc
       0.021255607 -0.083981514 0.10555037 -0.009793603
000320 a9 2f db bc 6a 20 c4 bb a6 63 0c 3c db e2 2b 3e
       -0.026756125 -0.0059853094 0.00856868 0.16785757
000330 c2 28 4b bc ca 7d bf bc 9e e8 5e bd 4e 1b e6 3b
       -0.012399854 -0.02337541 -0.05442106 0.007022298
000340 44 b4 90 3c fa 8f 31 3d 2b b1 77 3e 33 76 10 3d
       0.017664082 0.043350197 0.24188678 0.035268974
000350 75 fc c0 3d bc 10 69 3e 13 83 8c bc d6 3d f1 3d
       0.09423152 0.2276029 -0.017152345 0.117793724
000360 c7 19 16 be ab 24 5d be 99 6e 0d bd 18 a6 dd 3d
       -0.14658271 -0.21596019 -0.034529302 0.108226955
000370 36 e8 49 3c db 4f 5e 3e 08 d9 b8 bd 0e fb 3e bd
       0.01232343 0.2171015 -0.090257704 -0.046626143
000380 2e 3e c1 3c 63 e2 4e bd d7 17 74 3e e5 9a 2d be
       0.02358922 -0.050508868 0.23837219 -0.16953619
000390 ab 46 e8 3c dd b2 0c be ba 81 41 3c 6e 36 95 bb
       0.02835401 -0.13740106 0.011810714 -0.0045536077
0003a0 79 bf 60 3e b3 36 8f 3d 73 6e 81 bd f7 a3 62 bd
       0.21948041 0.06992855 -0.06319895 -0.05533215
0003b0 4b a3 dc 3c e5 53 88 be 6a 77 d2 3b 46 19 17 3e
       0.026933333 -0.26626506 0.0064229267 0.14755735
0003c0 54 a2 79 3b 40 65 21 3c 5f d1 16 3e 73 9d 47 3c
       0.003809114 0.0098508 0.14728306 0.012183535
0003d0 d9 9b 39 bc c1 a3 00 3d 7d 03 80 be dd 33 ad bd
       -0.011328661 0.031406168 -0.2500266 -0.08457158
0003e0 9a 3e 73 bd 8e 8e 4a bd cc a9 31 bd ff 76 ab bd
       -0.059385873 -0.049452357 -0.04337482 -0.08372306
0003f0 76 f3 e5 3c 5d 4e 39 bd b4 9b a9 bc 6d 78 40 bd
       0.028070193 -0.04524075 -0.020704128 -0.046989847
