spd/experiments/mlp/arithmetic_model.pth (torch, 6834 bytes, 3 tensors)

fc1.weight f4 [20, 16]
00000000: 7e6a 153f 6d71 b13d 8617 10bb 2e82 993e
00000010: bf9d d03a 8309 93bb 3021 79be 635a 20bf
00000020: 7f26 863d 1fa3 a43d 42c8 a83d 816a 8fbe
00000030: 21b0 29bd 225c 06bd 0e0c 8cbb 883b af3b
00000040: 8c28 c53c c9d8 c03c 4800 05ba c80f 4ebc
00000050: 2862 3d3d ddf1 c53a 7ae0 713d 9bf9 bbbb
00000060: 7d68 06bf e2e4 01bf fcaf b1be 0c30 b33d
00000070: 71a2 393f 07f3 313f 7e70 cdbc 810b d83b
00000080: 8e6d eabb 34df 4abe 4f60 08bc 356f 79bc
00000090: def9 173e b1a3 903b f3ab 3a3c 136d bfbe
000000a0: b9e7 65bc bc18 1abb 41dc 85bb 8f83 aebf
000000b0: 5b71 ed3c 27c4 e53c f5ca aebc fb36 f6ba
000000c0: 342c d8bc d741 8b3f 6f7f 23bc cb35 d53d
000000d0: 80ff 223f ad8d 44bc db81 93be 5711 8e3d
000000e0: fbae 563d 13dc 23bd 6ec4 0b3e 4c62 a4bc
000000f0: e78d 683c ad00 3a3c b985 9d3c cef3 1cbc
00000100: 5bde 003d 4270 81bf 7544 4a3c 44e0 9bbd
00000110: a9df 0abf b6b0 583b 4d5f b2be 7702 933d
00000120: bd79 1d3d 2cad 73bd 9d99 01be 8b43 08bd
00000130: b60d 56ba a653 053c 534c fa3c 6ec9 36bc
00000140: c843 40be 8566 733d 6cc1 19b8 1f87 8f3c
00000150: be3c 78bd f4f2 bfbb a553 bfbe 4567 16bf
00000160: ae91 dabd 50ab f7bd ecec b2bd 1007 6f3f
00000170: c8b8 8d3d d208 893d 26de 703c bdaf 693b
00000180: bc2c a5bc f8c8 8a3c e3be f1ba d74a 903c
00000190: aefd 903c d47c 49bb 3305 7fbd 3512 5ebc
000001a0: 1fbc afbe 53ea b4be 7aae 9abe 9fc0 9fbd
000001b0: d2b5 28bf 7405 23bf 7a6e 9d3c 498c a0bb
000001c0: 3bad 153d 8614 2b3b 7fa9 40bc 7ea3 b3bc
000001d0: 7313 4ebd 698d 353c cbb9 68bd 4a34 9b3c
000001e0: de07 6cbf 3289 51bf 9f6d e73c e5d0 ebbd
000001f0: 5654 55be 322e 57be d9a4 6cbe c670 003b
00000200: f79b 5dbe 144c fbbd 1077 e43a 6c92 083f
00000210: 54d7 a5be 996e f2ba fc0b 823d 5f38 8b3e
00000220: 76ba 943e d621 9a3e 13d6 6a3e 10ad 6ebe
00000230: 29d0 c2bd ae30 c0bd 5b61 56bb 01b7 7337
00000240: 06c8 f23a 318f 823e e29a 9fb6 e99f ba3c
00000250: fa7f 3ebe 4ada a53b c0ec dfbc 81e4 f43e
00000260: 2717 4a3c 8017 a53b d079 c53a 780e e13f
00000270: 4c10 0dbd c9f8 10bd 5da4 df3c 5dfb 94ba
00000280: 79ed ad3c d29c 90bc 4e39 24ba 31c5 a4bc
00000290: 9cae 4ebc fbca ee39 3964 453d 6007 223c
000002a0: c160 873e ed3a 923e 8c4c 773e 1aab 5e3d
000002b0: 880a 083f e2f7 023f a299 49bc 550f f13a
000002c0: 191c 6d3c 4f1d 8d3f 9d83 803c 2e3b cebd
000002d0: 286e 28bf 6263 c53a 49fa edbd 6cde f13b
000002e0: a955 693d abfd 39bd fca4 1bbe 4b23 c13b
000002f0: 2b1a d0bc 5af8 813c 120a 673c e054 b6bc
00000300: ae5d 2abf 7811 cabd d1c9 2439 6204 adbe
00000310: 0924 87bb 1bb8 43bb 11fc 8f3e 0061 363f
00000320: 6f0b 96bd bb29 cfbd cd93 cebd 37cb a23e
00000330: 4f58 213d a955 2f3d 59f1 103c f43e 5abb
00000340: aff1 9dbc 4772 78bf 2859 fdba 0445 ae3d
00000350: 5665 0f3f ada0 86bb d1f1 6d3e 9fcc 67bd
00000360: 5272 5a3d b907 583d f7ff d73d 637d 713b
00000370: e605 10bc 7e45 b13b 2af1 b0bc db17 023a
00000380: f45a 803e 2046 aebd 872a 97bb 1cff 80bc
00000390: b2f3 9e3d dda2 c8ba a368 043f 7795 493f
000003a0: 7f4d 163e cdab 243e 767c f33d 7068 9ebf
000003b0: 60f4 c1bd 5c4a a1bd 8dfa adbc 3b91 c33b
000003c0: 07d8 8dbc ffb3 b7bc bd9c 153c d6fe 2c3c
000003d0: 072d 2cbd 73e3 ef3b 6854 8fbd a797 903c
000003e0: 447b 0c3f 4813 0d3f c6e4 bd3e 5433 e0bd
000003f0: defa 3ebf a46d 37bf baba a93c 8342 4d3a
0.5836562 0.086642124 -0.0021986677 0.29982132 0.0015916153 -0.004487218 -0.24329066 -0.6263792
0.06550311 0.080389254 0.08241321 -0.28010944 -0.041427735 -0.03280271 -0.004273898 0.005347673
0.024067186 0.023540871 -0.0005073589 -0.012577005 0.046236187 0.0015101988 0.05905197 -0.0057365424
-0.52503186 -0.5073987 -0.34704578 0.087493986 0.7251349 0.69511455 -0.025078055 0.0065931682
-0.007154173 -0.19811708 -0.008323743 -0.015224268 0.1484141 0.004414045 0.011393535 -0.37387905
-0.014032298 -0.0023513278 -0.004085094 -1.3633898 0.028984716 0.028047634 -0.021337012 -0.0018784696
-0.026388265 1.0879468 -0.009979113 0.10410651 0.6367111 -0.011996669 -0.2881001 0.06936901
0.052412968 -0.0400048 0.1364915 -0.020066403 0.014193988 0.0113527 0.019228803 -0.009579612
0.031462055 -1.0112383 0.012345423 -0.07611135 -0.5424753 0.0033064312 -0.34838334 0.071782045
0.038446177 -0.05949132 -0.12656255 -0.03326754 -0.0008165495 0.008137619 0.030553972 -0.011156423
-0.18775856 0.059423942 -3.665818e-05 0.017520485 -0.060604803 -0.0058578197 -0.37368503 -0.58751327
-0.106723174 -0.12093222 -0.087365955 0.9337015 0.0692001 0.066911355 0.014701402 0.0035657727
-0.020162933 0.016941532 -0.001844373 0.017613811 0.017699089 -0.003074457 -0.062260818 -0.013554146
-0.34323213 -0.35335025 -0.3021124 -0.078004114 -0.65902436 -0.63680196 0.019217718 -0.004899536
0.03654216 0.0026104762 -0.011759161 -0.021928545 -0.050311517 0.011081078 -0.05681781 0.018945832
-0.92199504 -0.8184997 0.028250514 -0.11514453 -0.20832953 -0.21013716 -0.2310976 0.0019598468
-0.21641527 -0.1227037 0.0017430503 0.5334842 -0.32390845 -0.0018496095 0.06349942 0.27191445
0.29048508 0.3010394 0.22933225 -0.23308206 -0.0951236 -0.09384285 -0.0032711837 1.4526538e-05
0.0018522746 0.2549987 -4.7566e-06 0.02278133 -0.18603507 0.0050614225 -0.02733457 0.47830585
0.0123346215 0.005038202 0.001506621 1.758254 -0.03443937 -0.03539351 0.027300054 -0.0011366416
0.0212314 -0.017652903 -0.00062646426 -0.02011356 -0.012614872 0.0004554613 0.048191283 0.009889454
0.26441005 0.28560582 0.24150294 0.054362394 0.5314107 0.5115949 -0.012304695 0.001839141
0.014472031 1.1024569 0.015687758 -0.100698814 -0.65793085 0.0015059526 -0.11620004 0.007381251
0.056966458 -0.045407932 -0.15199655 0.0058941 -0.025403103 0.015865494 0.014101522 -0.022257268
-0.66549194 -0.09866613 0.00015715441 -0.33792406 -0.004124169 -0.0029864374 0.28122 0.7124176
-0.073263995 -0.10115381 -0.100867845 0.31795666 0.03939086 0.0428063 0.008846604 -0.0033301683
-0.019280283 -0.97049373 -0.0019328939 0.085092574 0.56014 -0.0041085095 0.23236777 -0.056591626
0.05333168 0.05274174 0.10546868 0.0036848418 -0.008790469 0.0054098954 -0.021599371 0.0004962661
0.25069392 -0.08509469 -0.004613224 -0.015746646 0.07761325 -0.0015307326 0.5172216 0.7874369
0.14678 0.16081162 0.118889734 -1.2375622 -0.09470439 -0.07875511 -0.021237636 0.0059682406
-0.017314924 -0.022424696 0.009131608 0.0105588045 -0.04203513 0.007320815 -0.06998521 0.017650438
0.5487559 0.55107546 0.37088603 -0.1094729 -0.7460154 -0.71651673 0.020718921 0.00078300404

fc2.weight f4 [20, 20]
00000000: f21a 8cbc 9f71 08be b2fb 203f 508d 74bc
00000010: a248 603e 97d4 0a3f b860 a43e 32b5 7f3e
00000020: 7407 1d3e d514 6fbe 21b4 23bd d343 353d
00000030: b93b ae3e 6dce 773e 27c1 c2bd e5ef 0e3f
00000040: e606 a93d d75e 933e 2645 c43e d677 153d
00000050: d888 803d 9a10 1bbf 4b89 613e e71c f4bc
00000060: 6bac 973e 96ef 63be 3308 be3d f34c 18c0
00000070: f692 843e 213f 87bd ce3f 993d e827 d13c
00000080: fb49 893d eb8a 8abe 8414 873d 2ebd 543f
00000090: 605e 073c 4f68 db3e 8215 a13e dbd3 3d3f
000000a0: 8107 c7bd a61e a0bc a397 ed3d 6986 8f3e
000000b0: 5a57 82bd bf76 9c3d b995 ebbd 8fa0 693e
000000c0: 1f62 143f d890 853e f8da 623e 600a f43b
000000d0: cbad 043f 96bb b13e ff0b 633e 3a4e e33e
000000e0: b2c1 3e3e c9d6 ac3e 5c16 983d cb91 4c3b
000000f0: 943f 8f3e 3456 c33e fec7 063e bea3 3b3d
00000100: ac82 ee3d 3a90 8bbd 7b2b a8bd d983 a33e
00000110: 4c32 b73e 3b8f f63d 2f2f 953e a33e 9a3e
00000120: 2eca f83c d80e 29be f056 843e 9e49 4ebd
00000130: 5464 b23e e0b6 ba3e 347f d33d 9579 a1bd
00000140: 8bf0 1d3f 372b d4be fe43 953d d58a 343e
00000150: 39d0 7a3d 83dd cf3e 242d a23d 7a2c d33d
00000160: 066d 143e d6ef 783e 2f88 b93e 1049 c13e
00000170: 7782 39bd 8228 ea3c 1fbd 213e 28e7 113f
00000180: d2f2 7d3e ed2d ffbd 5b0a ef3e ebc5 0b3e
00000190: 89e2 bebd c0b3 61bd a3d2 f83d e3e2 26bf
000001a0: 4c73 973e 6d93 653f ec89 8d3e 4165 333f
000001b0: fde4 813e 5410 4abe dc84 a63d fe25 163f
000001c0: f79d f43e 2105 533f 1c9d 1c3f 4d00 59bd
000001d0: 8c7b 843d 5f3e 63be e2de a3bc d671 0b3e
000001e0: f049 f1be 7382 a53e 95c5 e63c 7819 a6be
000001f0: 4d44 f7bd cf6c 47be 95c6 2ebf fc94 473f
00000200: f653 9dbd 040f 123f d49c 6dbe 3eed e2be
00000210: f28c 4bbe 3280 a5bc d831 e7be 3ff5 a0be
00000220: 3f0d dfbe d803 b73f 9009 8e3e 53aa 5ebf
00000230: b1d6 fa3e 43b9 863c 18b1 6d3e c3f4 d83e
00000240: c42b 9d3e 748b 273e 449e 1d3e 86e2 ddbd
00000250: 9b01 323e f08c 903e 7683 c03d 4360 bebe
00000260: 8af3 a3bd beea dd3e 259c 793d adf1 03be
00000270: 43e7 083e 4dab cabb d148 5d3c 4bbf c73e
00000280: 75bd 25be 9932 a33e f795 bb3e 4bbf 07bf
00000290: 227f 003f 68c4 f13e f39c 333e 5ad8 febe
000002a0: 4954 0c3f 03ef 4cbe 1f8f 8dbe 2720 193f
000002b0: 34a2 303f 6391 b93e 2611 083f 0bcc 923e
000002c0: 6680 ce3d 733a 87bd ed88 4b3e 0a66 ce3e
000002d0: c7bc ab3b 4060 623e 8343 0b3e 0039 9c3e
000002e0: 7dc8 413d 714e cabd 7dac 443e 5b22 773e
000002f0: a8a4 b4bd e35a 3a3e eb16 85be d538 723e
00000300: 41a1 d43e cde9 2b3d 0751 f13e 088d 623e
00000310: 4165 78bd 08e8 143f 7a13 493f 0e2f 323d
00000320: 8937 cf3d b930 923e 82d3 2dbf 55e5 b43c
00000330: 4f92 243e b8fa 773e c90c 24bf 9f7d 13c0
00000340: 7efd 53be 2f5c 503f 6d52 3c3f 5955 2bbe
00000350: f1ab babd ad92 763d deb8 69be cd06 203e
00000360: 2ff2 863d b619 f3be 7fd6 c23e 85ee 83bf
00000370: 9f28 9a3e f6cc ca3e 8a9f 183f b5c0 a13e
00000380: 395f ab3e ec4b eebd cdf1 a9be 16b5 a63d
00000390: 9914 04be 41ac 9e3e 200a efbd cfe2 c7bd
000003a0: 308d 203e f2e3 98bd 5dff 7abe e5e2 9e3e
000003b0: 7468 0e3e 74e9 07be a9c3 a43e 07da 5a3e
000003c0: dff4 a8bd b3bc f53d f90c 5a3d 5183 983e
000003d0: 869b 06bd d3c9 0d3f a850 0ebd 561a f4bb
000003e0: ce75 8d3c 01a8 8f3d d81b fa3e 7eeb 1d3e
000003f0: a4c2 a83e 6696 943c f01c 613c 4439 883d
-0.017102692 -0.13324593 0.62884057 -0.01492627 0.21902707 0.54230636 0.3210504 0.24971464
0.15334874 -0.2334779 -0.039966706 0.044254135 0.3402994 0.24199839 -0.09509497 0.558348
0.08253269 0.28783295 0.38334006 0.036491238 0.06276101 -0.60572207 0.2202503 -0.029798938
0.29623732 -0.22259364 0.092789076 -2.3796966 0.25893372 -0.06603838 0.07482873 0.025531724
0.06703564 -0.2705911 0.0659571 0.83101165 0.008262247 0.4285302 0.31461722 0.7415139
-0.09718228 -0.019545864 0.11601188 0.28032234 -0.06364317 0.076398365 -0.11503167 0.22815154
0.5796222 0.2608707 0.22153842 0.007447526 0.5182769 0.3471343 0.22172545 0.4439562
0.18628576 0.33757618 0.0742614 0.003121483 0.27978194 0.38151705 0.13162228 0.045810454
0.116460174 -0.068146184 -0.08211418 0.3193653 0.3578056 0.12039038 0.2913756 0.30125913
0.030369844 -0.16509569 0.25847578 -0.050363176 0.3484217 0.36467648 0.103269964 -0.07884518
0.61695164 -0.4143922 0.07288359 0.17631085 0.061233733 0.40598688 0.07918766 0.103112176
0.14494714 0.2431024 0.36236712 0.37751055 -0.045290437 0.028583769 0.157948 0.5699334
0.2479966 -0.124599315 0.46687588 0.13649718 -0.09320552 -0.055103064 0.12149551 -0.6518995
0.29580152 0.8967808 0.2764429 0.70076376 0.25370017 -0.19732791 0.0813081 0.5865172
0.47776768 0.824297 0.6117723 -0.052978802 0.06468877 -0.22191761 -0.02000374 0.13617644
-0.47126722 0.32326087 0.028170386 -0.32441306 -0.12073574 -0.19475101 -0.6827176 0.7796171
-0.0768203 0.5705416 -0.23204356 -0.44321626 -0.19877985 -0.02020273 -0.45155215 -0.31437108
-0.43564793 1.4298048 0.2774167 -0.86978644 0.48991922 0.016445762 0.23212087 0.42374238
0.30697453 0.16361791 0.15392405 -0.108342215 0.17383425 0.28232527 0.09400074 -0.37182817
-0.08005436 0.43343157 0.060939927 -0.1288516 0.1336947 -0.0061849714 0.01350613 0.39013132
-0.16185553 0.3187454 0.36637852 -0.53026265 0.5019399 0.4722016 0.1754034 -0.49774438
0.5481611 -0.2001305 -0.27648255 0.59814686 0.689975 0.36243734 0.53151166 0.28671297
0.10083084 -0.06602945 0.19876452 0.40312225 0.00524101 0.22107029 0.13599972 0.30512238
0.04731034 -0.09878243 0.19206424 0.241342 -0.08820468 0.18198733 -0.25994048 0.23654492
0.41529277 0.041971017 0.4713213 0.22124112 -0.06064344 0.5816655 0.78545344 0.043501906
0.10118014 0.28552797 -0.6790086 0.02208201 0.16071437 0.24216735 -0.6408201 -2.3045423
-0.20702168 0.8139066 0.7356327 -0.16731776 -0.091148265 0.060198475 -0.22824427 0.15627594
0.065891616 -0.47480553 0.38054273 -1.0307165 0.30109116 0.39609498 0.5961844 0.31592336
0.33471087 -0.11635575 -0.33192292 0.08140008 -0.12898482 0.30990794 -0.11671853 -0.09760057
0.15678859 -0.07465352 -0.24511476 0.31032482 0.13907033 -0.13272649 0.32180527 0.21372233
-0.082498305 0.11998882 0.053235028 0.29787686 -0.032863162 0.55386084 -0.03474489 -0.0074494286
0.017268088 0.07014466 0.48849368 0.15421864 0.32961 0.018138122 0.013739809 0.066515476

fc3.weight f4 [20, 20]
00000000: c293 c7be 22d0 48bc 9ea4 22bf fc94 2c3f
00000010: 1f46 f83e fffb aebd 47d2 8a3b d702 e03e
00000020: 53f6 e4bc 6eb0 de3e 0ffc b1bb c839 81bd
00000030: 522e 6cbf 8594 ca3e 2b69 1d3e 8986 19bf
00000040: 40e1 773f 1fa7 eabe 8d8f 2fbe e49b 76be
00000050: 6ec1 e3be 69f3 733b 509b 3abe 1c03 8dbd
00000060: 5839 7f3e 8fc9 253e e00e 52bb d719 22bf
00000070: 5ff3 0abe 9934 c33e 879f dd3a 9b2a 8d3e
00000080: d62d e33e be7e 22bf b84b 0e3e 0e18 89be
00000090: f9ae f3be a605 f03e 5c99 633e d9dc f43e
000000a0: 9256 55bf ce13 0cbc 8b42 51bf ab41 1b3f
000000b0: db29 3c3f 531f 9d3d 4ded 3f3b a718 47be
000000c0: 710e 27be c645 513f 1ae0 81bb 6a4a 5a3e
000000d0: eaae f4be 7c36 73be 8007 963e 5cb6 5dbf
000000e0: 5eba fc3e 1780 373c eb78 543d a66c 733e
000000f0: 3eaa 113c bc18 bfbc 57ab 2e3d 826a 6c3b
00000100: 9f67 803c ca07 bdbc a25e fdbc 53a6 29bc
00000110: bdbd 6fbc 21fc fdbc e9c2 d03c a89b 31bd
00000120: 38d0 ffbc 548a 243c d3db 3d3d 20f3 a53d
00000130: 7286 84bc b404 28bd c0c8 483c 758e fc3b
00000140: 89cd 0dbe 0277 b2bc cd8e 203e 84f8 adbe
00000150: a1f3 f1be b88d dd3c 2a2c bd3c ebce d73e
00000160: 37eb b1bd ab54 18bf 5b7b e13c ccda 0bbc
00000170: 9b3c c1be 846e 86bf 3843 1d3d 2c92 923b
00000180: abce d83e 6b11 363f 3452 793f 67db 0f3e
00000190: b2d5 d8be e879 3d3d ee03 97be 82db ef3c
000001a0: c00c 543c 5a1a cc3e c8ad f43b ef38 2abf
000001b0: c9de 3d3e f8b1 87bf a1d8 96bb 913e 823e
000001c0: 3765 0bbf 12e3 75bf d97c 14be 23c3 c03d
000001d0: e160 1e3f 60c4 413f 29bb 243f e39a 4e3f
000001e0: 8d12 df3b b7c9 a43c 5300 203b 808b 88bc
000001f0: b9d1 adbc 6550 33bb 1bc3 e5bc 6081 233c
00000200: dd59 5abc 8b3c b83c a1e0 303c fee5 aaba
00000210: 60fb 573b 165d cabc a3d2 be3c b04a 923c
00000220: 5581 793c 0d93 cebc 032b 153c 066f c3bc
00000230: 3496 11be bd76 ddbc 5da7 1b3e d910 dd3e
00000240: 783c 45be bcde 4e3d 8e7a 47bc 8bb4 c93e
00000250: 199e 943b a52d 67bf bbfb f33c 2ab8 ca3c
00000260: 61c3 a6be e3ef 733e b789 c8be 096e c2be
00000270: 2499 03be 64c0 7c3f b0b0 703f 2fe2 cebd
00000280: c9c4 91bd 7e03 ed3d e98b 91bd 423b 273d
00000290: e89a bb3d 2c20 953d 4163 7e3d 268b c13d
000002a0: 8053 6d3d 209c 8d3b 8141 573d 5225 b9bd
000002b0: 286a 013e 98f1 bbbd f99a 8cbd b6e6 7abd
000002c0: 6ff3 b6bd 5c76 203c 55ba 963d d21f 43be
000002d0: cf1b 90bf cafd 9a3c a58d 803f aca7 12bc
000002e0: e37d 9abf 7c06 7a3e 6565 183c 582e dcbe
000002f0: 499b d2bc 6519 373f e9d7 533c 47d1 5e3c
00000300: 03a9 1dbf 1113 ff3e 7904 c83e c1f2 3abf
00000310: b549 7d3f 6e4a 0a3f 8a23 5abf 51a7 df3d
00000320: ba49 61be 446e b63d 584d fc3f f8b9 613f
00000330: 9dbe 723f 0861 abba 7fe7 46bc 0b85 a93d
00000340: 5c1b 8bbd 7920 55bf d96a 16bd 4cc1 a6bc
00000350: e485 1a3e d7a1 cebe d736 a7bd 24a0 17bf
00000360: 1b55 e8be 06d3 5cbf 469e 38bf 6c4c 483d
00000370: 30fd 80bd c743 2f3f 5340 aebc 2023 3f3e
00000380: e5e1 c6be ca5c 4d3f c013 b13f 680e 82be
00000390: 3c00 89bf 037d c33d 6a9b 9cbe cec0 5b3e
000003a0: 901f 233d 1ad5 7d3d c614 203d af39 d43e
000003b0: 2954 1a3e 820b 34bd 60a1 473e ec55 16be
000003c0: d143 16bd 164e 5f3b 1b76 0f3d e93d f1bc
000003d0: f693 633d c550 2abd a32f cb3d 0dd7 ab3c
000003e0: 85e3 9c3d 175a 883c cca2 943b 73d9 e73d
000003f0: 08e2 f33b 2c3f 5cbd 854a bbbd 3ad3 6cbd
-0.38979918 -0.012256654 -0.63532436 0.6741483 0.48490998 -0.08544158 0.004236493 0.43752167
-0.027949488 0.4349398 -0.005431659 -0.06309849 -0.9225818 0.39566436 0.1537215 -0.5997091
0.9682808 -0.45830628 -0.17144604 -0.24082905 -0.44483513 0.0037223941 -0.1822331 -0.06885359
0.24924219 0.1619017 -0.0032052323 -0.6332068 -0.13569401 0.38126066 0.0016908505 0.27571568
0.44370908 -0.63474643 0.13896072 -0.26776165 -0.4759443 0.4687931 0.2222647 0.47824743
-0.8333522 -0.008549644 -0.8174216 0.60647076 0.73501366 0.0767199 0.002928573 -0.19442998
-0.16314103 0.8174709 -0.0039634826 0.21317449 -0.477897 -0.23751253 0.29302597 -0.86606383
0.49360937 0.011199973 0.05187313 0.23771915 0.008890687 -0.023327224 0.04264387 0.0036074226
0.01567441 -0.023075003 -0.030928914 -0.010354596 -0.0146326395 -0.031004013 0.025483565 -0.043361336
-0.031227216 0.010042746 0.04635222 0.08103013 -0.01617739 -0.04102011 0.012254894 0.007707412
-0.13847937 -0.021785263 0.15679474 -0.33978665 -0.47256187 0.027045116 0.023092348 0.42150053
-0.08687442 -0.59504193 0.02752464 -0.008536052 -0.3774155 -1.0502477 0.038394183 0.0044729915
0.42345175 0.7112033 0.97391057 0.14048539 -0.42350537 0.046258837 -0.29495186 0.029279474
0.012942493 0.39863855 0.0074670054 -0.66493124 0.18542017 -1.0601187 -0.004603461 0.2543836
-0.54451317 -0.96049607 -0.1450075 0.094122194 0.61866575 0.7569027 0.64348084 0.8070509
0.0068076313 0.020115716 0.0024414256 -0.016668081 -0.021218168 -0.0027361151 -0.028047135 0.009979576
-0.013327089 0.022489807 0.010795743 -0.0013038514 0.0032956228 -0.02470259 0.023293799 0.01785788
0.015228589 -0.025216604 0.009104493 -0.023856651 -0.14217454 -0.027034158 0.15200563 0.43176916
-0.19261348 0.050505385 -0.012175215 0.39395556 0.0045354483 -0.90304023 0.02978312 0.02474602
-0.32570937 0.23821978 -0.39167568 -0.37974575 -0.12851387 0.98731065 0.94019604 -0.10101735
-0.07117612 0.11572932 -0.07106764 0.040827997 0.091604054 0.07281527 0.062106375 0.094503686
0.05794096 0.00432159 0.052552704 -0.090403214 0.12638152 -0.0917694 -0.06865496 -0.06125518
-0.0893315 0.009793844 0.07359759 -0.19055107 -1.1258487 0.018919844 1.0043226 -0.008951109
-1.2069668 0.24416536 0.009301518 -0.43004107 -0.025708811 0.71523124 0.012929895 0.0135997
-0.61586016 0.49819234 0.39065912 -0.73026663 0.98940593 0.5401982 -0.8521048 0.10920585
-0.2200078 0.0890775 1.9711103 0.8817439 0.948221 -0.0013075182 -0.012140154 0.08277329
-0.06792328 -0.83252674 -0.03672299 -0.020355843 0.15090138 -0.4035785 -0.08164757 -0.5922873
-0.4537743 -0.86259496 -0.72116506 0.048901007 -0.06298292 0.68462795 -0.021270907 0.18665743
-0.3884422 0.8021971 1.3834152 -0.25401616 -1.0703197 0.095453285 -0.30587322 0.21460268
0.039825022 0.061970808 0.03908231 0.4145026 0.15071167 -0.043956287 0.19495153 -0.14681214
-0.03668577 0.0034073642 0.035024744 -0.029448466 0.05556103 -0.041580934 0.09921195 0.020976568
0.076605834 0.01664452 0.0045360085 0.11320772 0.0074427165 -0.053771183 -0.09145073 -0.05781863
